…
class="line">18</span><br><span class="line">19</span><br><span class="line">20</span><br><span class="line">21</span><br><span class="line">22</span><br><span class="line">23</span><br></pre></td><td class="code"><pre><code class="hljs asciidoc"><span class="hljs-code">----------------------------------------------------------------</span><br><span class="hljs-code">        Layer (type)               Output Shape         Param #</span><br><span class="hljs-code">================================================================</span><br><span class="hljs-code">            Conv2d-1             [8, 6, 28, 28]             156</span><br><span class="hljs-code">           Sigmoid-2             [8, 6, 28, 28]               0</span><br><span class="hljs-code">         AvgPool2d-3             [8, 6, 14, 14]               0</span><br><span class="hljs-code">            Conv2d-4            [8, 16, 10, 10]           2,416</span><br><span class="hljs-code">         AvgPool2d-5              [8, 16, 5, 5]               0</span><br><span class="hljs-code">           Flatten-6                   [8, 400]               0</span><br><span class="hljs-code">            Linear-7                   [8, 120]          48,120</span><br><span class="hljs-code">            Linear-8                    [8, 84]          10,164</span><br><span class="hljs-code">            Linear-9                    [8, 10]             850</span><br><span class="hljs-code">================================================================</span><br><span class="hljs-code">Total params: 61,706</span><br><span class="hljs-code">Trainable params: 61,706</span><br><span class="hljs-code">Non-trainable params: 0</span><br><span class="hljs-code">----------------------------------------------------------------</span><br>Input size (MB): 0.
…
