…
\\_posts\\2025-07-21-卷积神经网络（CNN）原理.md","url":"/D:/Blog/source/_posts/2025-07-21-卷积神经网络（CNN）原理.md"},{"title":"卷积神经网络（CNN）原理","content":"![LetNet5](2025-07-21-卷积神经网络（CNN）原理/LetNet5结构图.png)","section":"","file":"D:\\Blog\\source\\_posts\\2025-07-21-卷积神经网络（CNN）原理.md","url":"/D:/Blog/source/_posts/2025-07-21-卷积神经网络（CNN）原理.md"},{"title":"卷积神经网络（CNN）原理","content":"```\n```\n----------------------------------------------------------------\n        Layer (type)               Output Shape         Param #\n================================================================\n            Conv2d-1             [8, 6, 28, 28]             156\n           Sigmoid-2             [8, 6, 28, 28]               0\n         AvgPool2d-3             [8, 6, 14, 14]               0\n            Conv2d-4            [8, 16, 10, 10]           2,416\n         AvgPool2d-5              [8, 16, 5, 5]               0\n           Flatten-6                   [8, 400]               0\n            Linear-7                   [8, 120]          48,120\n            Linear-8                    [8, 84]          10,164\n            Linear-9                    [8, 10]             850\n```","section":"","file":"D:\\Blog\\source\\_posts\\2025-07-21-卷积神经网络（CNN）原理.md","url":"/D:/Blog/source/_posts/2025-07-21-卷积神经网络（CNN）原理.md"},{"title":"卷积神经网络（CNN）原理","content":"```\n         10,164\n            Linear-9                    [8, 10]             850\n================================================================\nTotal params: 61,706\nTrainable params: 61,706\nNon-trainable params: 0\n----------------------------------------------------------------\nInput size (MB): 0.02\nForward/backward pass size (MB): 0.81\nParams size (MB): 0.24\nEstimated Total Size (MB): 1.06\n----------------------------------------------------------------\nNone\n``
…
